2023-05-06,00:03:19 | INFO | Running with a single process. Device cuda:0.
2023-05-06,00:03:19 | INFO | Loaded ViT-bigG-14 model config.
2023-05-06,00:03:43 | INFO | Loading pretrained ViT-bigG-14 weights (laion2b_s39b_b160k).
2023-05-06,00:03:56 | INFO | Model:
2023-05-06,00:03:56 | INFO | CLIP(
  (visual): VisionTransformer(
    (patchnorm_pre_ln): Identity()
    (conv1): Conv2d(3, 1664, kernel_size=(14, 14), stride=(14, 14), bias=False)
    (patch_dropout): Identity()
    (ln_pre): LayerNorm((1664,), eps=1e-05, elementwise_affine=True)
    (transformer): Transformer(
      (resblocks): ModuleList(
        (0): ResidualAttentionBlock(
          (ln_1): LayerNorm((1664,), eps=1e-05, elementwise_affine=True)
          (attn): MultiheadAttention(
            (out_proj): NonDynamicallyQuantizableLinear(in_features=1664, out_features=1664, bias=True)
          )
          (ls_1): Identity()
          (ln_2): LayerNorm((1664,), eps=1e-05, elementwise_affine=True)
          (mlp): Sequential(
            (c_fc): Linear(in_features=1664, out_features=8192, bias=True)
            (gelu): GELU()
            (c_proj): Linear(in_features=8192, out_features=1664, bias=True)
          )
          (ls_2): Identity()
        )
        (1): ResidualAttentionBlock(
          (ln_1): LayerNorm((1664,), eps=1e-05, elementwise_affine=True)
          (attn): MultiheadAttention(
            (out_proj): NonDynamicallyQuantizableLinear(in_features=1664, out_features=1664, bias=True)
          )
          (ls_1): Identity()
          (ln_2): LayerNorm((1664,), eps=1e-05, elementwise_affine=True)
          (mlp): Sequential(
            (c_fc): Linear(in_features=1664, out_features=8192, bias=True)
            (gelu): GELU()
            (c_proj): Linear(in_features=8192, out_features=1664, bias=True)
          )
          (ls_2): Identity()
        )
        (2): ResidualAttentionBlock(
          (ln_1): LayerNorm((1664,), eps=1e-05, elementwise_affine=True)
          (attn): MultiheadAttention(
            (out_proj): NonDynamicallyQuantizableLinear(in_features=1664, out_features=1664, bias=True)
          )
          (ls_1): Identity()
          (ln_2): LayerNorm((1664,), eps=1e-05, elementwise_affine=True)
          (mlp): Sequential(
            (c_fc): Linear(in_features=1664, out_features=8192, bias=True)
            (gelu): GELU()
            (c_proj): Linear(in_features=8192, out_features=1664, bias=True)
          )
          (ls_2): Identity()
        )
        (3): ResidualAttentionBlock(
          (ln_1): LayerNorm((1664,), eps=1e-05, elementwise_affine=True)
          (attn): MultiheadAttention(
            (out_proj): NonDynamicallyQuantizableLinear(in_features=1664, out_features=1664, bias=True)
          )
          (ls_1): Identity()
          (ln_2): LayerNorm((1664,), eps=1e-05, elementwise_affine=True)
          (mlp): Sequential(
            (c_fc): Linear(in_features=1664, out_features=8192, bias=True)
            (gelu): GELU()
            (c_proj): Linear(in_features=8192, out_features=1664, bias=True)
          )
          (ls_2): Identity()
        )
        (4): ResidualAttentionBlock(
          (ln_1): LayerNorm((1664,), eps=1e-05, elementwise_affine=True)
          (attn): MultiheadAttention(
            (out_proj): NonDynamicallyQuantizableLinear(in_features=1664, out_features=1664, bias=True)
          )
          (ls_1): Identity()
          (ln_2): LayerNorm((1664,), eps=1e-05, elementwise_affine=True)
          (mlp): Sequential(
            (c_fc): Linear(in_features=1664, out_features=8192, bias=True)
            (gelu): GELU()
            (c_proj): Linear(in_features=8192, out_features=1664, bias=True)
          )
          (ls_2): Identity()
        )
        (5): ResidualAttentionBlock(
          (ln_1): LayerNorm((1664,), eps=1e-05, elementwise_affine=True)
          (attn): MultiheadAttention(
            (out_proj): NonDynamicallyQuantizableLinear(in_features=1664, out_features=1664, bias=True)
          )
          (ls_1): Identity()
          (ln_2): LayerNorm((1664,), eps=1e-05, elementwise_affine=True)
          (mlp): Sequential(
            (c_fc): Linear(in_features=1664, out_features=8192, bias=True)
            (gelu): GELU()
            (c_proj): Linear(in_features=8192, out_features=1664, bias=True)
          )
          (ls_2): Identity()
        )
        (6): ResidualAttentionBlock(
          (ln_1): LayerNorm((1664,), eps=1e-05, elementwise_affine=True)
          (attn): MultiheadAttention(
            (out_proj): NonDynamicallyQuantizableLinear(in_features=1664, out_features=1664, bias=True)
          )
          (ls_1): Identity()
          (ln_2): LayerNorm((1664,), eps=1e-05, elementwise_affine=True)
          (mlp): Sequential(
            (c_fc): Linear(in_features=1664, out_features=8192, bias=True)
            (gelu): GELU()
            (c_proj): Linear(in_features=8192, out_features=1664, bias=True)
          )
          (ls_2): Identity()
        )
        (7): ResidualAttentionBlock(
          (ln_1): LayerNorm((1664,), eps=1e-05, elementwise_affine=True)
          (attn): MultiheadAttention(
            (out_proj): NonDynamicallyQuantizableLinear(in_features=1664, out_features=1664, bias=True)
          )
          (ls_1): Identity()
          (ln_2): LayerNorm((1664,), eps=1e-05, elementwise_affine=True)
          (mlp): Sequential(
            (c_fc): Linear(in_features=1664, out_features=8192, bias=True)
            (gelu): GELU()
            (c_proj): Linear(in_features=8192, out_features=1664, bias=True)
          )
          (ls_2): Identity()
        )
        (8): ResidualAttentionBlock(
          (ln_1): LayerNorm((1664,), eps=1e-05, elementwise_affine=True)
          (attn): MultiheadAttention(
            (out_proj): NonDynamicallyQuantizableLinear(in_features=1664, out_features=1664, bias=True)
          )
          (ls_1): Identity()
          (ln_2): LayerNorm((1664,), eps=1e-05, elementwise_affine=True)
          (mlp): Sequential(
            (c_fc): Linear(in_features=1664, out_features=8192, bias=True)
            (gelu): GELU()
            (c_proj): Linear(in_features=8192, out_features=1664, bias=True)
          )
          (ls_2): Identity()
        )
        (9): ResidualAttentionBlock(
          (ln_1): LayerNorm((1664,), eps=1e-05, elementwise_affine=True)
          (attn): MultiheadAttention(
            (out_proj): NonDynamicallyQuantizableLinear(in_features=1664, out_features=1664, bias=True)
          )
          (ls_1): Identity()
          (ln_2): LayerNorm((1664,), eps=1e-05, elementwise_affine=True)
          (mlp): Sequential(
            (c_fc): Linear(in_features=1664, out_features=8192, bias=True)
            (gelu): GELU()
            (c_proj): Linear(in_features=8192, out_features=1664, bias=True)
          )
          (ls_2): Identity()
        )
        (10): ResidualAttentionBlock(
          (ln_1): LayerNorm((1664,), eps=1e-05, elementwise_affine=True)
          (attn): MultiheadAttention(
            (out_proj): NonDynamicallyQuantizableLinear(in_features=1664, out_features=1664, bias=True)
          )
          (ls_1): Identity()
          (ln_2): LayerNorm((1664,), eps=1e-05, elementwise_affine=True)
          (mlp): Sequential(
            (c_fc): Linear(in_features=1664, out_features=8192, bias=True)
            (gelu): GELU()
            (c_proj): Linear(in_features=8192, out_features=1664, bias=True)
          )
          (ls_2): Identity()
        )
        (11): ResidualAttentionBlock(
          (ln_1): LayerNorm((1664,), eps=1e-05, elementwise_affine=True)
          (attn): MultiheadAttention(
            (out_proj): NonDynamicallyQuantizableLinear(in_features=1664, out_features=1664, bias=True)
          )
          (ls_1): Identity()
          (ln_2): LayerNorm((1664,), eps=1e-05, elementwise_affine=True)
          (mlp): Sequential(
            (c_fc): Linear(in_features=1664, out_features=8192, bias=True)
            (gelu): GELU()
            (c_proj): Linear(in_features=8192, out_features=1664, bias=True)
          )
          (ls_2): Identity()
        )
        (12): ResidualAttentionBlock(
          (ln_1): LayerNorm((1664,), eps=1e-05, elementwise_affine=True)
          (attn): MultiheadAttention(
            (out_proj): NonDynamicallyQuantizableLinear(in_features=1664, out_features=1664, bias=True)
          )
          (ls_1): Identity()
          (ln_2): LayerNorm((1664,), eps=1e-05, elementwise_affine=True)
          (mlp): Sequential(
            (c_fc): Linear(in_features=1664, out_features=8192, bias=True)
            (gelu): GELU()
            (c_proj): Linear(in_features=8192, out_features=1664, bias=True)
          )
          (ls_2): Identity()
        )
        (13): ResidualAttentionBlock(
          (ln_1): LayerNorm((1664,), eps=1e-05, elementwise_affine=True)
          (attn): MultiheadAttention(
            (out_proj): NonDynamicallyQuantizableLinear(in_features=1664, out_features=1664, bias=True)
          )
          (ls_1): Identity()
          (ln_2): LayerNorm((1664,), eps=1e-05, elementwise_affine=True)
          (mlp): Sequential(
            (c_fc): Linear(in_features=1664, out_features=8192, bias=True)
            (gelu): GELU()
            (c_proj): Linear(in_features=8192, out_features=1664, bias=True)
          )
          (ls_2): Identity()
        )
        (14): ResidualAttentionBlock(
          (ln_1): LayerNorm((1664,), eps=1e-05, elementwise_affine=True)
          (attn): MultiheadAttention(
            (out_proj): NonDynamicallyQuantizableLinear(in_features=1664, out_features=1664, bias=True)
          )
          (ls_1): Identity()
          (ln_2): LayerNorm((1664,), eps=1e-05, elementwise_affine=True)
          (mlp): Sequential(
            (c_fc): Linear(in_features=1664, out_features=8192, bias=True)
            (gelu): GELU()
            (c_proj): Linear(in_features=8192, out_features=1664, bias=True)
          )
          (ls_2): Identity()
        )
        (15): ResidualAttentionBlock(
          (ln_1): LayerNorm((1664,), eps=1e-05, elementwise_affine=True)
          (attn): MultiheadAttention(
            (out_proj): NonDynamicallyQuantizableLinear(in_features=1664, out_features=1664, bias=True)
          )
          (ls_1): Identity()
          (ln_2): LayerNorm((1664,), eps=1e-05, elementwise_affine=True)
          (mlp): Sequential(
            (c_fc): Linear(in_features=1664, out_features=8192, bias=True)
            (gelu): GELU()
            (c_proj): Linear(in_features=8192, out_features=1664, bias=True)
          )
          (ls_2): Identity()
        )
        (16): ResidualAttentionBlock(
          (ln_1): LayerNorm((1664,), eps=1e-05, elementwise_affine=True)
          (attn): MultiheadAttention(
            (out_proj): NonDynamicallyQuantizableLinear(in_features=1664, out_features=1664, bias=True)
          )
          (ls_1): Identity()
          (ln_2): LayerNorm((1664,), eps=1e-05, elementwise_affine=True)
          (mlp): Sequential(
            (c_fc): Linear(in_features=1664, out_features=8192, bias=True)
            (gelu): GELU()
            (c_proj): Linear(in_features=8192, out_features=1664, bias=True)
          )
          (ls_2): Identity()
        )
        (17): ResidualAttentionBlock(
          (ln_1): LayerNorm((1664,), eps=1e-05, elementwise_affine=True)
          (attn): MultiheadAttention(
            (out_proj): NonDynamicallyQuantizableLinear(in_features=1664, out_features=1664, bias=True)
          )
          (ls_1): Identity()
          (ln_2): LayerNorm((1664,), eps=1e-05, elementwise_affine=True)
          (mlp): Sequential(
            (c_fc): Linear(in_features=1664, out_features=8192, bias=True)
            (gelu): GELU()
            (c_proj): Linear(in_features=8192, out_features=1664, bias=True)
          )
          (ls_2): Identity()
        )
        (18): ResidualAttentionBlock(
          (ln_1): LayerNorm((1664,), eps=1e-05, elementwise_affine=True)
          (attn): MultiheadAttention(
            (out_proj): NonDynamicallyQuantizableLinear(in_features=1664, out_features=1664, bias=True)
          )
          (ls_1): Identity()
          (ln_2): LayerNorm((1664,), eps=1e-05, elementwise_affine=True)
          (mlp): Sequential(
            (c_fc): Linear(in_features=1664, out_features=8192, bias=True)
            (gelu): GELU()
            (c_proj): Linear(in_features=8192, out_features=1664, bias=True)
          )
          (ls_2): Identity()
        )
        (19): ResidualAttentionBlock(
          (ln_1): LayerNorm((1664,), eps=1e-05, elementwise_affine=True)
          (attn): MultiheadAttention(
            (out_proj): NonDynamicallyQuantizableLinear(in_features=1664, out_features=1664, bias=True)
          )
          (ls_1): Identity()
          (ln_2): LayerNorm((1664,), eps=1e-05, elementwise_affine=True)
          (mlp): Sequential(
            (c_fc): Linear(in_features=1664, out_features=8192, bias=True)
            (gelu): GELU()
            (c_proj): Linear(in_features=8192, out_features=1664, bias=True)
          )
          (ls_2): Identity()
        )
        (20): ResidualAttentionBlock(
          (ln_1): LayerNorm((1664,), eps=1e-05, elementwise_affine=True)
          (attn): MultiheadAttention(
            (out_proj): NonDynamicallyQuantizableLinear(in_features=1664, out_features=1664, bias=True)
          )
          (ls_1): Identity()
          (ln_2): LayerNorm((1664,), eps=1e-05, elementwise_affine=True)
          (mlp): Sequential(
            (c_fc): Linear(in_features=1664, out_features=8192, bias=True)
            (gelu): GELU()
            (c_proj): Linear(in_features=8192, out_features=1664, bias=True)
          )
          (ls_2): Identity()
        )
        (21): ResidualAttentionBlock(
          (ln_1): LayerNorm((1664,), eps=1e-05, elementwise_affine=True)
          (attn): MultiheadAttention(
            (out_proj): NonDynamicallyQuantizableLinear(in_features=1664, out_features=1664, bias=True)
          )
          (ls_1): Identity()
          (ln_2): LayerNorm((1664,), eps=1e-05, elementwise_affine=True)
          (mlp): Sequential(
            (c_fc): Linear(in_features=1664, out_features=8192, bias=True)
            (gelu): GELU()
            (c_proj): Linear(in_features=8192, out_features=1664, bias=True)
          )
          (ls_2): Identity()
        )
        (22): ResidualAttentionBlock(
          (ln_1): LayerNorm((1664,), eps=1e-05, elementwise_affine=True)
          (attn): MultiheadAttention(
            (out_proj): NonDynamicallyQuantizableLinear(in_features=1664, out_features=1664, bias=True)
          )
          (ls_1): Identity()
          (ln_2): LayerNorm((1664,), eps=1e-05, elementwise_affine=True)
          (mlp): Sequential(
            (c_fc): Linear(in_features=1664, out_features=8192, bias=True)
            (gelu): GELU()
            (c_proj): Linear(in_features=8192, out_features=1664, bias=True)
          )
          (ls_2): Identity()
        )
        (23): ResidualAttentionBlock(
          (ln_1): LayerNorm((1664,), eps=1e-05, elementwise_affine=True)
          (attn): MultiheadAttention(
            (out_proj): NonDynamicallyQuantizableLinear(in_features=1664, out_features=1664, bias=True)
          )
          (ls_1): Identity()
          (ln_2): LayerNorm((1664,), eps=1e-05, elementwise_affine=True)
          (mlp): Sequential(
            (c_fc): Linear(in_features=1664, out_features=8192, bias=True)
            (gelu): GELU()
            (c_proj): Linear(in_features=8192, out_features=1664, bias=True)
          )
          (ls_2): Identity()
        )
        (24): ResidualAttentionBlock(
          (ln_1): LayerNorm((1664,), eps=1e-05, elementwise_affine=True)
          (attn): MultiheadAttention(
            (out_proj): NonDynamicallyQuantizableLinear(in_features=1664, out_features=1664, bias=True)
          )
          (ls_1): Identity()
          (ln_2): LayerNorm((1664,), eps=1e-05, elementwise_affine=True)
          (mlp): Sequential(
            (c_fc): Linear(in_features=1664, out_features=8192, bias=True)
            (gelu): GELU()
            (c_proj): Linear(in_features=8192, out_features=1664, bias=True)
          )
          (ls_2): Identity()
        )
        (25): ResidualAttentionBlock(
          (ln_1): LayerNorm((1664,), eps=1e-05, elementwise_affine=True)
          (attn): MultiheadAttention(
            (out_proj): NonDynamicallyQuantizableLinear(in_features=1664, out_features=1664, bias=True)
          )
          (ls_1): Identity()
          (ln_2): LayerNorm((1664,), eps=1e-05, elementwise_affine=True)
          (mlp): Sequential(
            (c_fc): Linear(in_features=1664, out_features=8192, bias=True)
            (gelu): GELU()
            (c_proj): Linear(in_features=8192, out_features=1664, bias=True)
          )
          (ls_2): Identity()
        )
        (26): ResidualAttentionBlock(
          (ln_1): LayerNorm((1664,), eps=1e-05, elementwise_affine=True)
          (attn): MultiheadAttention(
            (out_proj): NonDynamicallyQuantizableLinear(in_features=1664, out_features=1664, bias=True)
          )
          (ls_1): Identity()
          (ln_2): LayerNorm((1664,), eps=1e-05, elementwise_affine=True)
          (mlp): Sequential(
            (c_fc): Linear(in_features=1664, out_features=8192, bias=True)
            (gelu): GELU()
            (c_proj): Linear(in_features=8192, out_features=1664, bias=True)
          )
          (ls_2): Identity()
        )
        (27): ResidualAttentionBlock(
          (ln_1): LayerNorm((1664,), eps=1e-05, elementwise_affine=True)
          (attn): MultiheadAttention(
            (out_proj): NonDynamicallyQuantizableLinear(in_features=1664, out_features=1664, bias=True)
          )
          (ls_1): Identity()
          (ln_2): LayerNorm((1664,), eps=1e-05, elementwise_affine=True)
          (mlp): Sequential(
            (c_fc): Linear(in_features=1664, out_features=8192, bias=True)
            (gelu): GELU()
            (c_proj): Linear(in_features=8192, out_features=1664, bias=True)
          )
          (ls_2): Identity()
        )
        (28): ResidualAttentionBlock(
          (ln_1): LayerNorm((1664,), eps=1e-05, elementwise_affine=True)
          (attn): MultiheadAttention(
            (out_proj): NonDynamicallyQuantizableLinear(in_features=1664, out_features=1664, bias=True)
          )
          (ls_1): Identity()
          (ln_2): LayerNorm((1664,), eps=1e-05, elementwise_affine=True)
          (mlp): Sequential(
            (c_fc): Linear(in_features=1664, out_features=8192, bias=True)
            (gelu): GELU()
            (c_proj): Linear(in_features=8192, out_features=1664, bias=True)
          )
          (ls_2): Identity()
        )
        (29): ResidualAttentionBlock(
          (ln_1): LayerNorm((1664,), eps=1e-05, elementwise_affine=True)
          (attn): MultiheadAttention(
            (out_proj): NonDynamicallyQuantizableLinear(in_features=1664, out_features=1664, bias=True)
          )
          (ls_1): Identity()
          (ln_2): LayerNorm((1664,), eps=1e-05, elementwise_affine=True)
          (mlp): Sequential(
            (c_fc): Linear(in_features=1664, out_features=8192, bias=True)
            (gelu): GELU()
            (c_proj): Linear(in_features=8192, out_features=1664, bias=True)
          )
          (ls_2): Identity()
        )
        (30): ResidualAttentionBlock(
          (ln_1): LayerNorm((1664,), eps=1e-05, elementwise_affine=True)
          (attn): MultiheadAttention(
            (out_proj): NonDynamicallyQuantizableLinear(in_features=1664, out_features=1664, bias=True)
          )
          (ls_1): Identity()
          (ln_2): LayerNorm((1664,), eps=1e-05, elementwise_affine=True)
          (mlp): Sequential(
            (c_fc): Linear(in_features=1664, out_features=8192, bias=True)
            (gelu): GELU()
            (c_proj): Linear(in_features=8192, out_features=1664, bias=True)
          )
          (ls_2): Identity()
        )
        (31): ResidualAttentionBlock(
          (ln_1): LayerNorm((1664,), eps=1e-05, elementwise_affine=True)
          (attn): MultiheadAttention(
            (out_proj): NonDynamicallyQuantizableLinear(in_features=1664, out_features=1664, bias=True)
          )
          (ls_1): Identity()
          (ln_2): LayerNorm((1664,), eps=1e-05, elementwise_affine=True)
          (mlp): Sequential(
            (c_fc): Linear(in_features=1664, out_features=8192, bias=True)
            (gelu): GELU()
            (c_proj): Linear(in_features=8192, out_features=1664, bias=True)
          )
          (ls_2): Identity()
        )
        (32): ResidualAttentionBlock(
          (ln_1): LayerNorm((1664,), eps=1e-05, elementwise_affine=True)
          (attn): MultiheadAttention(
            (out_proj): NonDynamicallyQuantizableLinear(in_features=1664, out_features=1664, bias=True)
          )
          (ls_1): Identity()
          (ln_2): LayerNorm((1664,), eps=1e-05, elementwise_affine=True)
          (mlp): Sequential(
            (c_fc): Linear(in_features=1664, out_features=8192, bias=True)
            (gelu): GELU()
            (c_proj): Linear(in_features=8192, out_features=1664, bias=True)
          )
          (ls_2): Identity()
        )
        (33): ResidualAttentionBlock(
          (ln_1): LayerNorm((1664,), eps=1e-05, elementwise_affine=True)
          (attn): MultiheadAttention(
            (out_proj): NonDynamicallyQuantizableLinear(in_features=1664, out_features=1664, bias=True)
          )
          (ls_1): Identity()
          (ln_2): LayerNorm((1664,), eps=1e-05, elementwise_affine=True)
          (mlp): Sequential(
            (c_fc): Linear(in_features=1664, out_features=8192, bias=True)
            (gelu): GELU()
            (c_proj): Linear(in_features=8192, out_features=1664, bias=True)
          )
          (ls_2): Identity()
        )
        (34): ResidualAttentionBlock(
          (ln_1): LayerNorm((1664,), eps=1e-05, elementwise_affine=True)
          (attn): MultiheadAttention(
            (out_proj): NonDynamicallyQuantizableLinear(in_features=1664, out_features=1664, bias=True)
          )
          (ls_1): Identity()
          (ln_2): LayerNorm((1664,), eps=1e-05, elementwise_affine=True)
          (mlp): Sequential(
            (c_fc): Linear(in_features=1664, out_features=8192, bias=True)
            (gelu): GELU()
            (c_proj): Linear(in_features=8192, out_features=1664, bias=True)
          )
          (ls_2): Identity()
        )
        (35): ResidualAttentionBlock(
          (ln_1): LayerNorm((1664,), eps=1e-05, elementwise_affine=True)
          (attn): MultiheadAttention(
            (out_proj): NonDynamicallyQuantizableLinear(in_features=1664, out_features=1664, bias=True)
          )
          (ls_1): Identity()
          (ln_2): LayerNorm((1664,), eps=1e-05, elementwise_affine=True)
          (mlp): Sequential(
            (c_fc): Linear(in_features=1664, out_features=8192, bias=True)
            (gelu): GELU()
            (c_proj): Linear(in_features=8192, out_features=1664, bias=True)
          )
          (ls_2): Identity()
        )
        (36): ResidualAttentionBlock(
          (ln_1): LayerNorm((1664,), eps=1e-05, elementwise_affine=True)
          (attn): MultiheadAttention(
            (out_proj): NonDynamicallyQuantizableLinear(in_features=1664, out_features=1664, bias=True)
          )
          (ls_1): Identity()
          (ln_2): LayerNorm((1664,), eps=1e-05, elementwise_affine=True)
          (mlp): Sequential(
            (c_fc): Linear(in_features=1664, out_features=8192, bias=True)
            (gelu): GELU()
            (c_proj): Linear(in_features=8192, out_features=1664, bias=True)
          )
          (ls_2): Identity()
        )
        (37): ResidualAttentionBlock(
          (ln_1): LayerNorm((1664,), eps=1e-05, elementwise_affine=True)
          (attn): MultiheadAttention(
            (out_proj): NonDynamicallyQuantizableLinear(in_features=1664, out_features=1664, bias=True)
          )
          (ls_1): Identity()
          (ln_2): LayerNorm((1664,), eps=1e-05, elementwise_affine=True)
          (mlp): Sequential(
            (c_fc): Linear(in_features=1664, out_features=8192, bias=True)
            (gelu): GELU()
            (c_proj): Linear(in_features=8192, out_features=1664, bias=True)
          )
          (ls_2): Identity()
        )
        (38): ResidualAttentionBlock(
          (ln_1): LayerNorm((1664,), eps=1e-05, elementwise_affine=True)
          (attn): MultiheadAttention(
            (out_proj): NonDynamicallyQuantizableLinear(in_features=1664, out_features=1664, bias=True)
          )
          (ls_1): Identity()
          (ln_2): LayerNorm((1664,), eps=1e-05, elementwise_affine=True)
          (mlp): Sequential(
            (c_fc): Linear(in_features=1664, out_features=8192, bias=True)
            (gelu): GELU()
            (c_proj): Linear(in_features=8192, out_features=1664, bias=True)
          )
          (ls_2): Identity()
        )
        (39): ResidualAttentionBlock(
          (ln_1): LayerNorm((1664,), eps=1e-05, elementwise_affine=True)
          (attn): MultiheadAttention(
            (out_proj): NonDynamicallyQuantizableLinear(in_features=1664, out_features=1664, bias=True)
          )
          (ls_1): Identity()
          (ln_2): LayerNorm((1664,), eps=1e-05, elementwise_affine=True)
          (mlp): Sequential(
            (c_fc): Linear(in_features=1664, out_features=8192, bias=True)
            (gelu): GELU()
            (c_proj): Linear(in_features=8192, out_features=1664, bias=True)
          )
          (ls_2): Identity()
        )
        (40): ResidualAttentionBlock(
          (ln_1): LayerNorm((1664,), eps=1e-05, elementwise_affine=True)
          (attn): MultiheadAttention(
            (out_proj): NonDynamicallyQuantizableLinear(in_features=1664, out_features=1664, bias=True)
          )
          (ls_1): Identity()
          (ln_2): LayerNorm((1664,), eps=1e-05, elementwise_affine=True)
          (mlp): Sequential(
            (c_fc): Linear(in_features=1664, out_features=8192, bias=True)
            (gelu): GELU()
            (c_proj): Linear(in_features=8192, out_features=1664, bias=True)
          )
          (ls_2): Identity()
        )
        (41): ResidualAttentionBlock(
          (ln_1): LayerNorm((1664,), eps=1e-05, elementwise_affine=True)
          (attn): MultiheadAttention(
            (out_proj): NonDynamicallyQuantizableLinear(in_features=1664, out_features=1664, bias=True)
          )
          (ls_1): Identity()
          (ln_2): LayerNorm((1664,), eps=1e-05, elementwise_affine=True)
          (mlp): Sequential(
            (c_fc): Linear(in_features=1664, out_features=8192, bias=True)
            (gelu): GELU()
            (c_proj): Linear(in_features=8192, out_features=1664, bias=True)
          )
          (ls_2): Identity()
        )
        (42): ResidualAttentionBlock(
          (ln_1): LayerNorm((1664,), eps=1e-05, elementwise_affine=True)
          (attn): MultiheadAttention(
            (out_proj): NonDynamicallyQuantizableLinear(in_features=1664, out_features=1664, bias=True)
          )
          (ls_1): Identity()
          (ln_2): LayerNorm((1664,), eps=1e-05, elementwise_affine=True)
          (mlp): Sequential(
            (c_fc): Linear(in_features=1664, out_features=8192, bias=True)
            (gelu): GELU()
            (c_proj): Linear(in_features=8192, out_features=1664, bias=True)
          )
          (ls_2): Identity()
        )
        (43): ResidualAttentionBlock(
          (ln_1): LayerNorm((1664,), eps=1e-05, elementwise_affine=True)
          (attn): MultiheadAttention(
            (out_proj): NonDynamicallyQuantizableLinear(in_features=1664, out_features=1664, bias=True)
          )
          (ls_1): Identity()
          (ln_2): LayerNorm((1664,), eps=1e-05, elementwise_affine=True)
          (mlp): Sequential(
            (c_fc): Linear(in_features=1664, out_features=8192, bias=True)
            (gelu): GELU()
            (c_proj): Linear(in_features=8192, out_features=1664, bias=True)
          )
          (ls_2): Identity()
        )
        (44): ResidualAttentionBlock(
          (ln_1): LayerNorm((1664,), eps=1e-05, elementwise_affine=True)
          (attn): MultiheadAttention(
            (out_proj): NonDynamicallyQuantizableLinear(in_features=1664, out_features=1664, bias=True)
          )
          (ls_1): Identity()
          (ln_2): LayerNorm((1664,), eps=1e-05, elementwise_affine=True)
          (mlp): Sequential(
            (c_fc): Linear(in_features=1664, out_features=8192, bias=True)
            (gelu): GELU()
            (c_proj): Linear(in_features=8192, out_features=1664, bias=True)
          )
          (ls_2): Identity()
        )
        (45): ResidualAttentionBlock(
          (ln_1): LayerNorm((1664,), eps=1e-05, elementwise_affine=True)
          (attn): MultiheadAttention(
            (out_proj): NonDynamicallyQuantizableLinear(in_features=1664, out_features=1664, bias=True)
          )
          (ls_1): Identity()
          (ln_2): LayerNorm((1664,), eps=1e-05, elementwise_affine=True)
          (mlp): Sequential(
            (c_fc): Linear(in_features=1664, out_features=8192, bias=True)
            (gelu): GELU()
            (c_proj): Linear(in_features=8192, out_features=1664, bias=True)
          )
          (ls_2): Identity()
        )
        (46): ResidualAttentionBlock(
          (ln_1): LayerNorm((1664,), eps=1e-05, elementwise_affine=True)
          (attn): MultiheadAttention(
            (out_proj): NonDynamicallyQuantizableLinear(in_features=1664, out_features=1664, bias=True)
          )
          (ls_1): Identity()
          (ln_2): LayerNorm((1664,), eps=1e-05, elementwise_affine=True)
          (mlp): Sequential(
            (c_fc): Linear(in_features=1664, out_features=8192, bias=True)
            (gelu): GELU()
            (c_proj): Linear(in_features=8192, out_features=1664, bias=True)
          )
          (ls_2): Identity()
        )
        (47): ResidualAttentionBlock(
          (ln_1): LayerNorm((1664,), eps=1e-05, elementwise_affine=True)
          (attn): MultiheadAttention(
            (out_proj): NonDynamicallyQuantizableLinear(in_features=1664, out_features=1664, bias=True)
          )
          (ls_1): Identity()
          (ln_2): LayerNorm((1664,), eps=1e-05, elementwise_affine=True)
          (mlp): Sequential(
            (c_fc): Linear(in_features=1664, out_features=8192, bias=True)
            (gelu): GELU()
            (c_proj): Linear(in_features=8192, out_features=1664, bias=True)
          )
          (ls_2): Identity()
        )
      )
    )
    (ln_post): LayerNorm((1664,), eps=1e-05, elementwise_affine=True)
  )
  (transformer): Transformer(
    (resblocks): ModuleList(
      (0): ResidualAttentionBlock(
        (ln_1): LayerNorm((1280,), eps=1e-05, elementwise_affine=True)
        (attn): MultiheadAttention(
          (out_proj): NonDynamicallyQuantizableLinear(in_features=1280, out_features=1280, bias=True)
        )
        (ls_1): Identity()
        (ln_2): LayerNorm((1280,), eps=1e-05, elementwise_affine=True)
        (mlp): Sequential(
          (c_fc): Linear(in_features=1280, out_features=5120, bias=True)
          (gelu): GELU()
          (c_proj): Linear(in_features=5120, out_features=1280, bias=True)
        )
        (ls_2): Identity()
      )
      (1): ResidualAttentionBlock(
        (ln_1): LayerNorm((1280,), eps=1e-05, elementwise_affine=True)
        (attn): MultiheadAttention(
          (out_proj): NonDynamicallyQuantizableLinear(in_features=1280, out_features=1280, bias=True)
        )
        (ls_1): Identity()
        (ln_2): LayerNorm((1280,), eps=1e-05, elementwise_affine=True)
        (mlp): Sequential(
          (c_fc): Linear(in_features=1280, out_features=5120, bias=True)
          (gelu): GELU()
          (c_proj): Linear(in_features=5120, out_features=1280, bias=True)
        )
        (ls_2): Identity()
      )
      (2): ResidualAttentionBlock(
        (ln_1): LayerNorm((1280,), eps=1e-05, elementwise_affine=True)
        (attn): MultiheadAttention(
          (out_proj): NonDynamicallyQuantizableLinear(in_features=1280, out_features=1280, bias=True)
        )
        (ls_1): Identity()
        (ln_2): LayerNorm((1280,), eps=1e-05, elementwise_affine=True)
        (mlp): Sequential(
          (c_fc): Linear(in_features=1280, out_features=5120, bias=True)
          (gelu): GELU()
          (c_proj): Linear(in_features=5120, out_features=1280, bias=True)
        )
        (ls_2): Identity()
      )
      (3): ResidualAttentionBlock(
        (ln_1): LayerNorm((1280,), eps=1e-05, elementwise_affine=True)
        (attn): MultiheadAttention(
          (out_proj): NonDynamicallyQuantizableLinear(in_features=1280, out_features=1280, bias=True)
        )
        (ls_1): Identity()
        (ln_2): LayerNorm((1280,), eps=1e-05, elementwise_affine=True)
        (mlp): Sequential(
          (c_fc): Linear(in_features=1280, out_features=5120, bias=True)
          (gelu): GELU()
          (c_proj): Linear(in_features=5120, out_features=1280, bias=True)
        )
        (ls_2): Identity()
      )
      (4): ResidualAttentionBlock(
        (ln_1): LayerNorm((1280,), eps=1e-05, elementwise_affine=True)
        (attn): MultiheadAttention(
          (out_proj): NonDynamicallyQuantizableLinear(in_features=1280, out_features=1280, bias=True)
        )
        (ls_1): Identity()
        (ln_2): LayerNorm((1280,), eps=1e-05, elementwise_affine=True)
        (mlp): Sequential(
          (c_fc): Linear(in_features=1280, out_features=5120, bias=True)
          (gelu): GELU()
          (c_proj): Linear(in_features=5120, out_features=1280, bias=True)
        )
        (ls_2): Identity()
      )
      (5): ResidualAttentionBlock(
        (ln_1): LayerNorm((1280,), eps=1e-05, elementwise_affine=True)
        (attn): MultiheadAttention(
          (out_proj): NonDynamicallyQuantizableLinear(in_features=1280, out_features=1280, bias=True)
        )
        (ls_1): Identity()
        (ln_2): LayerNorm((1280,), eps=1e-05, elementwise_affine=True)
        (mlp): Sequential(
          (c_fc): Linear(in_features=1280, out_features=5120, bias=True)
          (gelu): GELU()
          (c_proj): Linear(in_features=5120, out_features=1280, bias=True)
        )
        (ls_2): Identity()
      )
      (6): ResidualAttentionBlock(
        (ln_1): LayerNorm((1280,), eps=1e-05, elementwise_affine=True)
        (attn): MultiheadAttention(
          (out_proj): NonDynamicallyQuantizableLinear(in_features=1280, out_features=1280, bias=True)
        )
        (ls_1): Identity()
        (ln_2): LayerNorm((1280,), eps=1e-05, elementwise_affine=True)
        (mlp): Sequential(
          (c_fc): Linear(in_features=1280, out_features=5120, bias=True)
          (gelu): GELU()
          (c_proj): Linear(in_features=5120, out_features=1280, bias=True)
        )
        (ls_2): Identity()
      )
      (7): ResidualAttentionBlock(
        (ln_1): LayerNorm((1280,), eps=1e-05, elementwise_affine=True)
        (attn): MultiheadAttention(
          (out_proj): NonDynamicallyQuantizableLinear(in_features=1280, out_features=1280, bias=True)
        )
        (ls_1): Identity()
        (ln_2): LayerNorm((1280,), eps=1e-05, elementwise_affine=True)
        (mlp): Sequential(
          (c_fc): Linear(in_features=1280, out_features=5120, bias=True)
          (gelu): GELU()
          (c_proj): Linear(in_features=5120, out_features=1280, bias=True)
        )
        (ls_2): Identity()
      )
      (8): ResidualAttentionBlock(
        (ln_1): LayerNorm((1280,), eps=1e-05, elementwise_affine=True)
        (attn): MultiheadAttention(
          (out_proj): NonDynamicallyQuantizableLinear(in_features=1280, out_features=1280, bias=True)
        )
        (ls_1): Identity()
        (ln_2): LayerNorm((1280,), eps=1e-05, elementwise_affine=True)
        (mlp): Sequential(
          (c_fc): Linear(in_features=1280, out_features=5120, bias=True)
          (gelu): GELU()
          (c_proj): Linear(in_features=5120, out_features=1280, bias=True)
        )
        (ls_2): Identity()
      )
      (9): ResidualAttentionBlock(
        (ln_1): LayerNorm((1280,), eps=1e-05, elementwise_affine=True)
        (attn): MultiheadAttention(
          (out_proj): NonDynamicallyQuantizableLinear(in_features=1280, out_features=1280, bias=True)
        )
        (ls_1): Identity()
        (ln_2): LayerNorm((1280,), eps=1e-05, elementwise_affine=True)
        (mlp): Sequential(
          (c_fc): Linear(in_features=1280, out_features=5120, bias=True)
          (gelu): GELU()
          (c_proj): Linear(in_features=5120, out_features=1280, bias=True)
        )
        (ls_2): Identity()
      )
      (10): ResidualAttentionBlock(
        (ln_1): LayerNorm((1280,), eps=1e-05, elementwise_affine=True)
        (attn): MultiheadAttention(
          (out_proj): NonDynamicallyQuantizableLinear(in_features=1280, out_features=1280, bias=True)
        )
        (ls_1): Identity()
        (ln_2): LayerNorm((1280,), eps=1e-05, elementwise_affine=True)
        (mlp): Sequential(
          (c_fc): Linear(in_features=1280, out_features=5120, bias=True)
          (gelu): GELU()
          (c_proj): Linear(in_features=5120, out_features=1280, bias=True)
        )
        (ls_2): Identity()
      )
      (11): ResidualAttentionBlock(
        (ln_1): LayerNorm((1280,), eps=1e-05, elementwise_affine=True)
        (attn): MultiheadAttention(
          (out_proj): NonDynamicallyQuantizableLinear(in_features=1280, out_features=1280, bias=True)
        )
        (ls_1): Identity()
        (ln_2): LayerNorm((1280,), eps=1e-05, elementwise_affine=True)
        (mlp): Sequential(
          (c_fc): Linear(in_features=1280, out_features=5120, bias=True)
          (gelu): GELU()
          (c_proj): Linear(in_features=5120, out_features=1280, bias=True)
        )
        (ls_2): Identity()
      )
      (12): ResidualAttentionBlock(
        (ln_1): LayerNorm((1280,), eps=1e-05, elementwise_affine=True)
        (attn): MultiheadAttention(
          (out_proj): NonDynamicallyQuantizableLinear(in_features=1280, out_features=1280, bias=True)
        )
        (ls_1): Identity()
        (ln_2): LayerNorm((1280,), eps=1e-05, elementwise_affine=True)
        (mlp): Sequential(
          (c_fc): Linear(in_features=1280, out_features=5120, bias=True)
          (gelu): GELU()
          (c_proj): Linear(in_features=5120, out_features=1280, bias=True)
        )
        (ls_2): Identity()
      )
      (13): ResidualAttentionBlock(
        (ln_1): LayerNorm((1280,), eps=1e-05, elementwise_affine=True)
        (attn): MultiheadAttention(
          (out_proj): NonDynamicallyQuantizableLinear(in_features=1280, out_features=1280, bias=True)
        )
        (ls_1): Identity()
        (ln_2): LayerNorm((1280,), eps=1e-05, elementwise_affine=True)
        (mlp): Sequential(
          (c_fc): Linear(in_features=1280, out_features=5120, bias=True)
          (gelu): GELU()
          (c_proj): Linear(in_features=5120, out_features=1280, bias=True)
        )
        (ls_2): Identity()
      )
      (14): ResidualAttentionBlock(
        (ln_1): LayerNorm((1280,), eps=1e-05, elementwise_affine=True)
        (attn): MultiheadAttention(
          (out_proj): NonDynamicallyQuantizableLinear(in_features=1280, out_features=1280, bias=True)
        )
        (ls_1): Identity()
        (ln_2): LayerNorm((1280,), eps=1e-05, elementwise_affine=True)
        (mlp): Sequential(
          (c_fc): Linear(in_features=1280, out_features=5120, bias=True)
          (gelu): GELU()
          (c_proj): Linear(in_features=5120, out_features=1280, bias=True)
        )
        (ls_2): Identity()
      )
      (15): ResidualAttentionBlock(
        (ln_1): LayerNorm((1280,), eps=1e-05, elementwise_affine=True)
        (attn): MultiheadAttention(
          (out_proj): NonDynamicallyQuantizableLinear(in_features=1280, out_features=1280, bias=True)
        )
        (ls_1): Identity()
        (ln_2): LayerNorm((1280,), eps=1e-05, elementwise_affine=True)
        (mlp): Sequential(
          (c_fc): Linear(in_features=1280, out_features=5120, bias=True)
          (gelu): GELU()
          (c_proj): Linear(in_features=5120, out_features=1280, bias=True)
        )
        (ls_2): Identity()
      )
      (16): ResidualAttentionBlock(
        (ln_1): LayerNorm((1280,), eps=1e-05, elementwise_affine=True)
        (attn): MultiheadAttention(
          (out_proj): NonDynamicallyQuantizableLinear(in_features=1280, out_features=1280, bias=True)
        )
        (ls_1): Identity()
        (ln_2): LayerNorm((1280,), eps=1e-05, elementwise_affine=True)
        (mlp): Sequential(
          (c_fc): Linear(in_features=1280, out_features=5120, bias=True)
          (gelu): GELU()
          (c_proj): Linear(in_features=5120, out_features=1280, bias=True)
        )
        (ls_2): Identity()
      )
      (17): ResidualAttentionBlock(
        (ln_1): LayerNorm((1280,), eps=1e-05, elementwise_affine=True)
        (attn): MultiheadAttention(
          (out_proj): NonDynamicallyQuantizableLinear(in_features=1280, out_features=1280, bias=True)
        )
        (ls_1): Identity()
        (ln_2): LayerNorm((1280,), eps=1e-05, elementwise_affine=True)
        (mlp): Sequential(
          (c_fc): Linear(in_features=1280, out_features=5120, bias=True)
          (gelu): GELU()
          (c_proj): Linear(in_features=5120, out_features=1280, bias=True)
        )
        (ls_2): Identity()
      )
      (18): ResidualAttentionBlock(
        (ln_1): LayerNorm((1280,), eps=1e-05, elementwise_affine=True)
        (attn): MultiheadAttention(
          (out_proj): NonDynamicallyQuantizableLinear(in_features=1280, out_features=1280, bias=True)
        )
        (ls_1): Identity()
        (ln_2): LayerNorm((1280,), eps=1e-05, elementwise_affine=True)
        (mlp): Sequential(
          (c_fc): Linear(in_features=1280, out_features=5120, bias=True)
          (gelu): GELU()
          (c_proj): Linear(in_features=5120, out_features=1280, bias=True)
        )
        (ls_2): Identity()
      )
      (19): ResidualAttentionBlock(
        (ln_1): LayerNorm((1280,), eps=1e-05, elementwise_affine=True)
        (attn): MultiheadAttention(
          (out_proj): NonDynamicallyQuantizableLinear(in_features=1280, out_features=1280, bias=True)
        )
        (ls_1): Identity()
        (ln_2): LayerNorm((1280,), eps=1e-05, elementwise_affine=True)
        (mlp): Sequential(
          (c_fc): Linear(in_features=1280, out_features=5120, bias=True)
          (gelu): GELU()
          (c_proj): Linear(in_features=5120, out_features=1280, bias=True)
        )
        (ls_2): Identity()
      )
      (20): ResidualAttentionBlock(
        (ln_1): LayerNorm((1280,), eps=1e-05, elementwise_affine=True)
        (attn): MultiheadAttention(
          (out_proj): NonDynamicallyQuantizableLinear(in_features=1280, out_features=1280, bias=True)
        )
        (ls_1): Identity()
        (ln_2): LayerNorm((1280,), eps=1e-05, elementwise_affine=True)
        (mlp): Sequential(
          (c_fc): Linear(in_features=1280, out_features=5120, bias=True)
          (gelu): GELU()
          (c_proj): Linear(in_features=5120, out_features=1280, bias=True)
        )
        (ls_2): Identity()
      )
      (21): ResidualAttentionBlock(
        (ln_1): LayerNorm((1280,), eps=1e-05, elementwise_affine=True)
        (attn): MultiheadAttention(
          (out_proj): NonDynamicallyQuantizableLinear(in_features=1280, out_features=1280, bias=True)
        )
        (ls_1): Identity()
        (ln_2): LayerNorm((1280,), eps=1e-05, elementwise_affine=True)
        (mlp): Sequential(
          (c_fc): Linear(in_features=1280, out_features=5120, bias=True)
          (gelu): GELU()
          (c_proj): Linear(in_features=5120, out_features=1280, bias=True)
        )
        (ls_2): Identity()
      )
      (22): ResidualAttentionBlock(
        (ln_1): LayerNorm((1280,), eps=1e-05, elementwise_affine=True)
        (attn): MultiheadAttention(
          (out_proj): NonDynamicallyQuantizableLinear(in_features=1280, out_features=1280, bias=True)
        )
        (ls_1): Identity()
        (ln_2): LayerNorm((1280,), eps=1e-05, elementwise_affine=True)
        (mlp): Sequential(
          (c_fc): Linear(in_features=1280, out_features=5120, bias=True)
          (gelu): GELU()
          (c_proj): Linear(in_features=5120, out_features=1280, bias=True)
        )
        (ls_2): Identity()
      )
      (23): ResidualAttentionBlock(
        (ln_1): LayerNorm((1280,), eps=1e-05, elementwise_affine=True)
        (attn): MultiheadAttention(
          (out_proj): NonDynamicallyQuantizableLinear(in_features=1280, out_features=1280, bias=True)
        )
        (ls_1): Identity()
        (ln_2): LayerNorm((1280,), eps=1e-05, elementwise_affine=True)
        (mlp): Sequential(
          (c_fc): Linear(in_features=1280, out_features=5120, bias=True)
          (gelu): GELU()
          (c_proj): Linear(in_features=5120, out_features=1280, bias=True)
        )
        (ls_2): Identity()
      )
      (24): ResidualAttentionBlock(
        (ln_1): LayerNorm((1280,), eps=1e-05, elementwise_affine=True)
        (attn): MultiheadAttention(
          (out_proj): NonDynamicallyQuantizableLinear(in_features=1280, out_features=1280, bias=True)
        )
        (ls_1): Identity()
        (ln_2): LayerNorm((1280,), eps=1e-05, elementwise_affine=True)
        (mlp): Sequential(
          (c_fc): Linear(in_features=1280, out_features=5120, bias=True)
          (gelu): GELU()
          (c_proj): Linear(in_features=5120, out_features=1280, bias=True)
        )
        (ls_2): Identity()
      )
      (25): ResidualAttentionBlock(
        (ln_1): LayerNorm((1280,), eps=1e-05, elementwise_affine=True)
        (attn): MultiheadAttention(
          (out_proj): NonDynamicallyQuantizableLinear(in_features=1280, out_features=1280, bias=True)
        )
        (ls_1): Identity()
        (ln_2): LayerNorm((1280,), eps=1e-05, elementwise_affine=True)
        (mlp): Sequential(
          (c_fc): Linear(in_features=1280, out_features=5120, bias=True)
          (gelu): GELU()
          (c_proj): Linear(in_features=5120, out_features=1280, bias=True)
        )
        (ls_2): Identity()
      )
      (26): ResidualAttentionBlock(
        (ln_1): LayerNorm((1280,), eps=1e-05, elementwise_affine=True)
        (attn): MultiheadAttention(
          (out_proj): NonDynamicallyQuantizableLinear(in_features=1280, out_features=1280, bias=True)
        )
        (ls_1): Identity()
        (ln_2): LayerNorm((1280,), eps=1e-05, elementwise_affine=True)
        (mlp): Sequential(
          (c_fc): Linear(in_features=1280, out_features=5120, bias=True)
          (gelu): GELU()
          (c_proj): Linear(in_features=5120, out_features=1280, bias=True)
        )
        (ls_2): Identity()
      )
      (27): ResidualAttentionBlock(
        (ln_1): LayerNorm((1280,), eps=1e-05, elementwise_affine=True)
        (attn): MultiheadAttention(
          (out_proj): NonDynamicallyQuantizableLinear(in_features=1280, out_features=1280, bias=True)
        )
        (ls_1): Identity()
        (ln_2): LayerNorm((1280,), eps=1e-05, elementwise_affine=True)
        (mlp): Sequential(
          (c_fc): Linear(in_features=1280, out_features=5120, bias=True)
          (gelu): GELU()
          (c_proj): Linear(in_features=5120, out_features=1280, bias=True)
        )
        (ls_2): Identity()
      )
      (28): ResidualAttentionBlock(
        (ln_1): LayerNorm((1280,), eps=1e-05, elementwise_affine=True)
        (attn): MultiheadAttention(
          (out_proj): NonDynamicallyQuantizableLinear(in_features=1280, out_features=1280, bias=True)
        )
        (ls_1): Identity()
        (ln_2): LayerNorm((1280,), eps=1e-05, elementwise_affine=True)
        (mlp): Sequential(
          (c_fc): Linear(in_features=1280, out_features=5120, bias=True)
          (gelu): GELU()
          (c_proj): Linear(in_features=5120, out_features=1280, bias=True)
        )
        (ls_2): Identity()
      )
      (29): ResidualAttentionBlock(
        (ln_1): LayerNorm((1280,), eps=1e-05, elementwise_affine=True)
        (attn): MultiheadAttention(
          (out_proj): NonDynamicallyQuantizableLinear(in_features=1280, out_features=1280, bias=True)
        )
        (ls_1): Identity()
        (ln_2): LayerNorm((1280,), eps=1e-05, elementwise_affine=True)
        (mlp): Sequential(
          (c_fc): Linear(in_features=1280, out_features=5120, bias=True)
          (gelu): GELU()
          (c_proj): Linear(in_features=5120, out_features=1280, bias=True)
        )
        (ls_2): Identity()
      )
      (30): ResidualAttentionBlock(
        (ln_1): LayerNorm((1280,), eps=1e-05, elementwise_affine=True)
        (attn): MultiheadAttention(
          (out_proj): NonDynamicallyQuantizableLinear(in_features=1280, out_features=1280, bias=True)
        )
        (ls_1): Identity()
        (ln_2): LayerNorm((1280,), eps=1e-05, elementwise_affine=True)
        (mlp): Sequential(
          (c_fc): Linear(in_features=1280, out_features=5120, bias=True)
          (gelu): GELU()
          (c_proj): Linear(in_features=5120, out_features=1280, bias=True)
        )
        (ls_2): Identity()
      )
      (31): ResidualAttentionBlock(
        (ln_1): LayerNorm((1280,), eps=1e-05, elementwise_affine=True)
        (attn): MultiheadAttention(
          (out_proj): NonDynamicallyQuantizableLinear(in_features=1280, out_features=1280, bias=True)
        )
        (ls_1): Identity()
        (ln_2): LayerNorm((1280,), eps=1e-05, elementwise_affine=True)
        (mlp): Sequential(
          (c_fc): Linear(in_features=1280, out_features=5120, bias=True)
          (gelu): GELU()
          (c_proj): Linear(in_features=5120, out_features=1280, bias=True)
        )
        (ls_2): Identity()
      )
    )
  )
  (token_embedding): Embedding(49408, 1280)
  (ln_final): LayerNorm((1280,), eps=1e-05, elementwise_affine=True)
)
2023-05-06,00:03:56 | INFO | Params:
2023-05-06,00:03:56 | INFO |   accum_freq: 1
2023-05-06,00:03:56 | INFO |   aug_cfg: {}
2023-05-06,00:03:56 | INFO |   batch_size: 25
2023-05-06,00:03:56 | INFO |   beta1: 0.9
2023-05-06,00:03:56 | INFO |   beta2: 0.98
2023-05-06,00:03:56 | INFO |   checkpoint_path: ./logs/2023_05_06-00_03_19-model_ViT-bigG-14-lr_4e-07-b_25-j_15-p_amp/checkpoints
…
